…
_test_0001292']
class_index:['Background', 'BaseballPitch', 'BasketballDunk', 'Billiards', 'CleanAndJerk', 'CliffDiving', 'CricketBowling', 'CricketShot', 'Diving', 'FrisbeeCatch', 'GolfSwing', 'HammerThrow', 'HighJump', 'JavelinThrow', 'LongJump', 'PoleVault', 'Shotput', 'SoccerPenalty', 'TennisSwing', 'ThrowDiscus', 'VolleyballSpiking', 'Ambiguous']
distributed:False
position encoding : learned
position decoding : learned
Warning! No positional inputs found for a module, assuming batch size is 1.
VisionTransformer_v3(
  73.526 M, 99.828% Params, 2.372 GMac, 100.000% MACs, 
  (linear_encoding): Linear(8.39 M, 11.391% Params, 0.537 GMac, 22.630% MACs, in_features=8192, out_features=1024, bias=True)
  (position_encoding): LearnedPositionalEncoding(
    0.0 M, 0.000% Params, 0.0 GMac, 0.000% MACs, 
    (pe): Embedding(0.0 M, 0.000% Params, 0.0 GMac, 0.000% MACs, 65, 1024)
  )
  (pe_dropout): Dropout(0.0 M, 0.000% Params, 0.0 GMac, 0.000% MACs, p=0.1, inplace=False)
  (encoder): TransformerModel(
    12.589 M, 17.092% Params, 0.818 GMac, 34.482% MACs, 
    (net): Sequential(
      12.589 M, 17.092% Params, 0.818 GMac, 34.482% MACs, 
      (0): Residual(
        4.195 M, 5.696% Params, 0.273 GMac, 11.492% MACs, 
        (fn): PreNormDrop(
          4.195 M, 5.696% Params, 0.273 GMac, 11.492% MACs, 
          (norm): LayerNorm(0.0 M, 0.000% Params, 0.0 GMac, 0.000% MACs, (1024,), eps=1e-05, elementwise_affine=True)
          (dropout): Dropout(0.0 M, 0.000% Params, 0.0 GMac, 0.000% MACs, p=0.1, inplace=False)
          (fn): SelfAttention(
            4.195 M, 5.696% Params, 0.273 GMac, 11.492% MACs, 
            (qkv): Linear(3.146 M, 4.271% Params, 0.204 GMac, 8.619% MACs, in_features=1024, out_features=3072, bias=False)
            (attn_drop): Dropout(0.0 M, 0.000% Params, 0.0 GMac, 0.000% MACs, p=0.1, inplace=False)
            (proj): Linear(1.05 M, 1.425% Params, 0.068 GMac, 2.873% MACs, in_features=1024, out_features=1024, bias=True)
            (proj_drop): Dropout(0.0 M, 0.000% Params, 0.0 GMac, 0.000% MACs, p=0.1, inplace=False)
          )
        )
      )
      (1): Residual(
        2.099 M, 2.850% Params, 0.136 GMac, 5.749% MACs, 
        (fn): PreNorm(
          2.099 M, 2.850% Params, 0.136 GMac, 5.749% MACs, 
          (norm): LayerNorm(0.0 M, 0.000% Params, 0.0 GMac, 0.000% MACs, (1024,), eps=1e-05, elementwise_affine=True)
          (fn): FeedForward(
            2.099 M, 2.850% Params, 0.136 GMac, 5.749% MACs, 
            (net): Sequential(
              2.099 M, 2.850% Params, 0.136 GMac, 5.749% MACs, 
              (0): Linear(1.05 M, 1.425% Params, 0.068 GMac, 2.873% MACs, in_features=1024, out_features=1024, bias=True)
              (1): GELU(0.0 M, 0.000% Params, 0.0 GMac, 0.003% MACs, )
              (2): Dropout(0.0 M, 0.000% Params, 0.0 GMac, 0.000% MACs, p=0.1, inplace=False)
              (3): Linear(1.05 M, 1.425% Params, 0.068 GMac, 2.873% MACs, in_features=1024, out_features=1024, bias=True)
              (4): Dropout(0.0 M, 0.000% Params, 0.0 GMac, 0.000% MACs, p=0.1, inplace=False)
            )
          )
        )
      )
      (2): Residual(
        4.195 M, 5.696% Params, 0.273 GMac, 11.492% MACs, 
        (fn): PreNormDrop(
          4.195 M, 5.696% Params, 0.273 GMac, 11.492% MACs, 
          (norm): LayerNorm(0.0 M, 0.000% Params, 0.0 GMac, 0.000% MACs, (1024,), eps=1e-05, elementwise_affine=True)
          (dropout): Dropout(0.0 M, 0.000% Params, 0.0 GMac, 0.000% MACs, p=0.1, inplace=False)
          (fn): SelfAttention(
            4.195 M, 5.696% Params, 0.273 GMac, 11.492% MACs, 
            (qkv): Linear(3.146 M, 4.271% Params, 0.204 GMac, 8.619% MACs, in_features=1024, out_features=3072, bias=False)
            (attn_drop): Dropout(0.0 M, 0.000% Params, 0.0 GMac, 0.000% MACs, p=0.1, inplace=False)
            (proj): Linear(1.05 M, 1.425% Params, 0.068 GMac, 2.873% MACs, in_features=1024, out_features=1024, bias=True)
            (proj_drop): Dropout(0.0 M, 0.000% Params, 0.0 GMac, 0.000% MACs, p=0.1, inplace=False)
          )
        )
      )
      (3): Residual(
        2.099 M, 2.850% Params, 0.136 GMac, 5.749% MACs, 
        (fn): PreNorm(
          2.099 M, 2.850% Params, 0.136 GMac, 5.749% MACs, 
          (norm): LayerNorm(0.0 M, 0.000% Params, 0.0 GMac, 0.000% MACs, (1024,), eps=1e-05, elementwise_affine=True)
          (fn): FeedForward(
            2.099 M, 2.850% Params, 0.136 GMac, 5.749% MACs, 
            (net): Sequential(
              2.099 M, 2.850% Params, 0.136 GMac, 5.749% MACs, 
              (0): Linear(1.05 M, 1.425% Params, 0.068 GMac, 2.873% MACs, in_features=1024, out_features=1024, bias=True)
              (1): GELU(0.0 M, 0.000% Params, 0.0 GMac, 0.003% MACs, )
              (2): Dropout(0.0 M, 0.000% Params, 0.0 GMac, 0.000% MACs, p=0.1, inplace=False)
              (3): Linear(1.05 M, 1.425% Params, 0.068 GMac, 2.873% MACs, in_features=1024, out_features=1024, bias=True)
              (4): Dropout(0.0 M, 0.000% Params, 0.0 GMac, 0.000% MACs, p=0.1, inplace=False)
            )
          )
        )
      )
    )
  )
  (pre_head_ln): LayerNorm(0.0 M, 0.000% Params, 0.0 GMac, 0.000% MACs, (1024,), eps=1e-05, elementwise_affine=True)
  (mlp_head): Linear(0.045 M, 0.061% Params, 0.0 GMac, 0.002% MACs, in_features=2048, out_features=22, bias=True)
  (to_cls_token): Identity(0.0 M, 0.000% Params, 0.0 GMac, 0.000% MACs, )
  (decoder): Decoder(
    52.48 M, 71.253% Params, 1.017 GMac, 42.879% MACs, 
    (layers): ModuleList(
      52.48 M, 71.253% Params, 1.017 GMac, 42.879% MACs, 
      (0): DecoderLayer(
        10.496 M, 14.251% Params, 0.203 GMac, 8.576% MACs, 
        (self_attention): AttentionLayer(
          4.198 M, 5.700% Params, 0.034 GMac, 1.415% MACs, 
          (inner_attention): FullAttention(
            0.0 M, 0.000% Params, 0.0 GMac, 0.000% MACs, 
            (dropout): Dropout(0.0 M, 0.000% Params, 0.0 GMac, 0.000% MACs, p=0.1, inplace=False)
          )
          (query_projection): Linear(1.05 M, 1.425% Params, 0.008 GMac, 0.354% MACs, in_features=1024, out_features=1024, bias=True)
          (key_projection): Linear(1.05 M, 1.425% Params, 0.008 GMac, 0.354% MACs, in_features=1024, out_features=1024, bias=True)
          (value_projection): Linear(1.05 M, 1.425% Params, 0.008 GMac, 0.354% MACs, in_features=1024, out_features=1024, bias=True)
          (out_projection): Linear(1.05 M, 1.425% Params, 0.008 GMac, 0.354% MACs, in_features=1024, out_features=1024, bias=True)
        )
        (cross_attention): AttentionLayer(
          4.198 M, 5.700% Params, 0.153 GMac, 6.453% MACs, 
          (inner_attention): FullAttention(
            0.0 M, 0.000% Params, 0.0 GMac, 0.000% MACs, 
            (dropout): Dropout(0.0 M, 0.000% Params, 0.0 GMac, 0.000% MACs, p=0.1, inplace=False)
          )
          (query_projection): Linear(1.05 M, 1.425% Params, 0.008 GMac, 0.354% MACs, in_features=1024, out_features=1024, bias=True)
          (key_projection): Linear(1.05 M, 1.425% Params, 0.068 GMac, 2.873% MACs, in_features=1024, out_features=1024, bias=True)
          (value_projection): Linear(1.05 M, 1.425% Params, 0.068 GMac, 2.873% MACs, in_features=1024, out_features=1024, bias=True)
          (out_projection): Linear(1.05 M, 1.425% Params, 0.008 GMac, 0.354% MACs, in_features=1024, out_features=1024, bias=True)
        )
        (conv1): Conv1d(1.05 M, 1.425% Params, 0.008 GMac, 0.354% MACs, 1024, 1024, kernel_size=(1,), stride=(1,))
        (conv2): Conv1d(1.05 M, 1.425% Params, 0.008 GMac, 0.354% MACs, 1024, 1024, kernel_size=(1,), stride=(1,))
        (norm1): LayerNorm(0.0 M, 0.000% Params, 0.0 GMac, 0.000% MACs, (1024,), eps=1e-05, elementwise_affine=True)
        (norm2): LayerNorm(0.0 M, 0.000% Params, 0.0 GMac, 0.000% MACs, (1024,), eps=1e-05, elementwise_affine=True)
        (norm3): LayerNorm(0.0 M, 0.000% Params, 0.0 GMac, 0.000% MACs, (1024,), eps=1e-05, elementwise_affine=True)
        (dropout): Dropout(0.0 M, 0.000% Params, 0.0 GMac, 0.000% MACs, p=0.1, inplace=False)
      )
      (1): DecoderLayer(
        10.496 M, 14.251% Params, 0.203 GMac, 8.576% MACs, 
        (self_attention): AttentionLayer(
          4.198 M, 5.700% Params, 0.034 GMac, 1.415% MACs, 
          (inner_attention): FullAttention(
            0.0 M, 0.000% Params, 0.0 GMac, 0.000% MACs, 
            (dropout): Dropout(0.0 M, 0.000% Params, 0.0 GMac, 0.000% MACs, p=0.1, inplace=False)
          )
          (query_projection): Linear(1.05 M, 1.425% Params, 0.008 GMac, 0.354% MACs, in_features=1024, out_features=1024, bias=True)
          (key_projection): Linear(1.05 M, 1.425% Params, 0.008 GMac, 0.354% MACs, in_features=1024, out_features=1024, bias=True)
          (value_projection): Linear(1.05 M, 1.425% Params, 0.008 GMac, 0.354% MACs, in_features=1024, out_features=1024, bias=True)
          (out_projection): Linear(1.05 M, 1.425% Params, 0.008 GMac, 0.354% MACs, in_features=1024, out_features=1024, bias=True)
        )
        (cross_attention): AttentionLayer(
          4.198 M, 5.700% Params, 0.153 GMac, 6.453% MACs, 
          (inner_attention): FullAttention(
            0.0 M, 0.000% Params, 0.0 GMac, 0.000% MACs, 
            (dropout): Dropout(0.0 M, 0.000% Params, 0.0 GMac, 0.000% MACs, p=0.1, inplace=False)
          )
          (query_projection): Linear(1.05 M, 1.425% Params, 0.008 GMac, 0.354% MACs, in_features=1024, out_features=1024, bias=True)
          (key_projection): Linear(1.05 M, 1.425% Params, 0.068 GMac, 2.873% MACs, in_features=1024, out_features=1024, bias=True)
          (value_projection): Linear(1.05 M, 1.425% Params, 0.068 GMac, 2.873% MACs, in_features=1024, out_features=1024, bias=True)
          (out_projection): Linear(1.05 M, 1.425% Params, 0.008 GMac, 0.354% MACs, in_features=1024, out_features=1024, bias=True)
        )
        (conv1): Conv1d(1.05 M, 1.425% Params, 0.008 GMac, 0.354% MACs, 1024, 1024, kernel_size=(1,), stride=(1,))
        (conv2): Conv1d(1.05 M, 1.425% Params, 0.008 GMac, 0.354% MACs, 1024, 1024, kernel_size=(1,), stride=(1,))
        (norm1): LayerNorm(0.0 M, 0.000% Params, 0.0 GMac, 0.000% MACs, (1024,), eps=1e-05, elementwise_affine=True)
        (norm2): LayerNorm(0.0 M, 0.000% Params, 0.0 GMac, 0.000% MACs, (1024,), eps=1e-05, elementwise_affine=True)
        (norm3): LayerNorm(0.0 M, 0.000% Params, 0.0 GMac, 0.000% MACs, (1024,), eps=1e-05, elementwise_affine=True)
        (dropout): Dropout(0.0 M, 0.000% Params, 0.0 GMac, 0.000% MACs, p=0.1, inplace=False)
      )
      (2): DecoderLayer(
        10.496 M, 14.251% Params, 0.203 GMac, 8.576% MACs, 
        (self_attention): AttentionLayer(
          4.198 M, 5.700% Params, 0.034 GMac, 1.415% MACs, 
          (inner_attention): FullAttention(
            0.0 M, 0.000% Params, 0.0 GMac, 0.000% MACs, 
            (dropout): Dropout(0.0 M, 0.000% Params, 0.0 GMac, 0.000% MACs, p=0.1, inplace=False)
          )
          (query_projection): Linear(1.05 M, 1.425% Params, 0.008 GMac, 0.354% MACs, in_features=1024, out_features=1024, bias=True)
          (key_projection): Linear(1.05 M, 1.425% Params, 0.008 GMac, 0.354% MACs, in_features=1024, out_features=1024, bias=True)
          (value_projection): Linear(1.05 M, 1.425% Params, 0.008 GMac, 0.354% MACs, in_features=1024, out_features=1024, bias=True)
          (out_projection): Linear(1.05 M, 1.425% Params, 0.008 GMac, 0.354% MACs, in_features=1024, out_features=1024, bias=True)
        )
        (cross_attention): AttentionLayer(
          4.198 M, 5.700% Params, 0.153 GMac, 6.453% MACs, 
          (inner_attention): FullAttention(
            0.0 M, 0.000% Params, 0.0 GMac, 0.000% MACs, 
            (dropout): Dropout(0.0 M, 0.000% Params, 0.0 GMac, 0.000% MACs, p=0.1, inplace=False)
          )
          (query_projection): Linear(1.05 M, 1.425% Params, 0.008 GMac, 0.354% MACs, in_features=1024, out_features=1024, bias=True)
          (key_projection): Linear(1.05 M, 1.425% Params, 0.068 GMac, 2.873% MACs, in_features=1024, out_features=1024, bias=True)
          (value_projection): Linear(1.05 M, 1.425% Params, 0.068 GMac, 2.873% MACs, in_features=1024, out_features=1024, bias=True)
          (out_projection): Linear(1.05 M, 1.425% Params, 0.008 GMac, 0.354% MACs, in_features=1024, out_features=1024, bias=True)
        )
        (conv1): Conv1d(1.05 M, 1.425% Params, 0.008 GMac, 0.354% MACs, 1024, 1024, kernel_size=(1,), stride=(1,))
        (conv2): Conv1d(1.05 M, 1.425% Params, 0.008 GMac, 0.354% MACs, 1024, 1024, kernel_size=(1,), stride=(1,))
        (norm1): LayerNorm(0.0 M, 0.000% Params, 0.0 GMac, 0.000% MACs, (1024,), eps=1e-05, elementwise_affine=True)
        (norm2): LayerNorm(0.0 M, 0.000% Params, 0.0 GMac, 0.000% MACs, (1024,), eps=1e-05, elementwise_affine=True)
        (norm3): LayerNorm(0.0 M, 0.000% Params, 0.0 GMac, 0.000% MACs, (1024,), eps=1e-05, elementwise_affine=True)
        (dropout): Dropout(0.0 M, 0.000% Params, 0.0 GMac, 0.000% MACs, p=0.1, inplace=False)
      )
      (3): DecoderLayer(
        10.496 M, 14.251% Params, 0.203 GMac, 8.576% MACs, 
        (self_attention): AttentionLayer(
          4.198 M, 5.700% Params, 0.034 GMac, 1.415% MACs, 
          (inner_attention): FullAttention(
            0.0 M, 0.000% Params, 0.0 GMac, 0.000% MACs, 
            (dropout): Dropout(0.0 M, 0.000% Params, 0.0 GMac, 0.000% MACs, p=0.1, inplace=False)
          )
          (query_projection): Linear(1.05 M, 1.425% Params, 0.008 GMac, 0.354% MACs, in_features=1024, out_features=1024, bias=True)
          (key_projection): Linear(1.05 M, 1.425% Params, 0.008 GMac, 0.354% MACs, in_features=1024, out_features=1024, bias=True)
          (value_projection): Linear(1.05 M, 1.425% Params, 0.008 GMac, 0.354% MACs, in_features=1024, out_features=1024, bias=True)
          (out_projection): Linear(1.05 M, 1.425% Params, 0.008 GMac, 0.354% MACs, in_features=1024, out_features=1024, bias=True)
        )
        (cross_attention): AttentionLayer(
          4.198 M, 5.700% Params, 0.153 GMac, 6.453% MACs, 
          (inner_attention): FullAttention(
            0.0 M, 0.000% Params, 0.0 GMac, 0.000% MACs, 
            (dropout): Dropout(0.0 M, 0.000% Params, 0.0 GMac, 0.000% MACs, p=0.1, inplace=False)
          )
          (query_projection): Linear(1.05 M, 1.425% Params, 0.008 GMac, 0.354% MACs, in_features=1024, out_features=1024, bias=True)
          (key_projection): Linear(1.05 M, 1.425% Params, 0.068 GMac, 2.873% MACs, in_features=1024, out_features=1024, bias=True)
          (value_projection): Linear(1.05 M, 1.425% Params, 0.068 GMac, 2.873% MACs, in_features=1024, out_features=1024, bias=True)
          (out_projection): Linear(1.05 M, 1.425% Params, 0.008 GMac, 0.354% MACs, in_features=1024, out_features=1024, bias=True)
        )
        (conv1): Conv1d(1.05 M, 1.425% Params, 0.008 GMac, 0.354% MACs, 1024, 1024, kernel_size=(1,), stride=(1,))
        (conv2): Conv1d(1.05 M, 1.425% Params, 0.008 GMac, 0.354% MACs, 1024, 1024, kernel_size=(1,), stride=(1,))
        (norm1): LayerNorm(0.0 M, 0.000% Params, 0.0 GMac, 0.000% MACs, (1024,), eps=1e-05, elementwise_affine=True)
        (norm2): LayerNorm(0.0 M, 0.000% Params, 0.0 GMac, 0.000% MACs, (1024,), eps=1e-05, elementwise_affine=True)
        (norm3): LayerNorm(0.0 M, 0.000% Params, 0.0 GMac, 0.000% MACs, (1024,), eps=1e-05, elementwise_affine=True)
        (dropout): Dropout(0.0 M, 0.000% Params, 0.0 GMac, 0.000% MACs, p=0.1, inplace=False)
      )
      (4): DecoderLayer(
        10.496 M, 14.251% Params, 0.203 GMac, 8.576% MACs, 
        (self_attention): AttentionLayer(
          4.198 M, 5.700% Params, 0.034 GMac, 1.415% MACs, 
          (inner_attention): FullAttention(
            0.0 M, 0.000% Params, 0.0 GMac, 0.000% MACs, 
            (dropout): Dropout(0.0 M, 0.000% Params, 0.0 GMac, 0.000% MACs, p=0.1, inplace=False)
          )
          (query_projection): Linear(1.05 M, 1.425% Params, 0.008 GMac, 0.354% MACs, in_features=1024, out_features=1024, bias=True)
          (key_projection): Linear(1.05 M, 1.425% Params, 0.008 GMac, 0.354% MACs, in_features=1024, out_features=1024, bias=True)
          (value_projection): Linear(1.05 M, 1.425% Params, 0.008 GMac, 0.354% MACs, in_features=1024, out_features=1024, bias=True)
          (out_projection): Linear(1.05 M, 1.425% Params, 0.008 GMac, 0.354% MACs, in_features=1024, out_features=1024, bias=True)
        )
        (cross_attention): AttentionLayer(
          4.198 M, 5.700% Params, 0.153 GMac, 6.453% MACs, 
          (inner_attention): FullAttention(
            0.0 M, 0.000% Params, 0.0 GMac, 0.000% MACs, 
            (dropout): Dropout(0.0 M, 0.000% Params, 0.0 GMac, 0.000% MACs, p=0.1, inplace=False)
          )
          (query_projection): Linear(1.05 M, 1.425% Params, 0.008 GMac, 0.354% MACs, in_features=1024, out_features=1024, bias=True)
          (key_projection): Linear(1.05 M, 1.425% Params, 0.068 GMac, 2.873% MACs, in_features=1024, out_features=1024, bias=True)
          (value_projection): Linear(1.05 M, 1.425% Params, 0.068 GMac, 2.873% MACs, in_features=1024, out_features=1024, bias=True)
          (out_projection): Linear(1.05 M, 1.425% Params, 0.008 GMac, 0.354% MACs, in_features=1024, out_features=1024, bias=True)
        )
        (conv1): Conv1d(1.05 M, 1.425% Params, 0.008 GMac, 0.354% MACs, 1024, 1024, kernel_size=(1,), stride=(1,))
        (conv2): Conv1d(1.05 M, 1.425% Params, 0.008 GMac, 0.354% MACs, 1024, 1024, kernel_size=(1,), stride=(1,))
        (norm1): LayerNorm(0.0 M, 0.000% Params, 0.0 GMac, 0.000% MACs, (1024,), eps=1e-05, elementwise_affine=True)
        (norm2): LayerNorm(0.0 M, 0.000% Params, 0.0 GMac, 0.000% MACs, (1024,), eps=1e-05, elementwise_affine=True)
        (norm3): LayerNorm(0.0 M, 0.000% Params, 0.0 GMac, 0.000% MACs, (1024,), eps=1e-05, elementwise_affine=True)
        (dropout): Dropout(0.0 M, 0.000% Params, 0.0 GMac, 0.000% MACs, p=0.1, inplace=False)
      )
    )
    (norm): LayerNorm(0.0 M, 0.000% Params, 0.0 GMac, 0.000% MACs, (1024,), eps=1e-05, elementwise_affine=True)
  )
  (decoder_position_encoding): LearnedPositionalEncoding(
    0.0 M, 0.000% Params, 0.0 GMac, 0.000% MACs, 
    (pe): Embedding(0.0 M, 0.000% Params, 0.0 GMac, 0.000% MACs, 8, 1024)
  )
  (classifier): Linear(0.023 M, 0.031% Params, 0.0 GMac, 0.008% MACs, in_features=1024, out_features=22, bias=True)
  (after_dropout): Dropout(0.0 M, 0.000% Params, 0.0 GMac, 0.000% MACs, p=0.1, inplace=False)
)
Model FLOPs: 2372367404.0
Model params: 73653292
Loaded data/thumos_kin_plus_audio_val.pickle
Loaded data/thumos_kin_plus_audio_test.pickle
Start training
Epoch: [1]  [   0/1406]  eta: 1:40:22  lr: 0.000100  loss: 4.4572 (4.4572)  labels_encoder: 3.3247 (3.3247)  labels_decoder: 1.1325 (1.1325)  labels_encoder_unscaled: 3.3247 (3.3247)  labels_decoder_unscaled: 2.2649 (2.2649)  time: 4.2834  data: 3.5332  max mem: 2433
…
