…
_test_0001292']
class_index:['Background', 'BaseballPitch', 'BasketballDunk', 'Billiards', 'CleanAndJerk', 'CliffDiving', 'CricketBowling', 'CricketShot', 'Diving', 'FrisbeeCatch', 'GolfSwing', 'HammerThrow', 'HighJump', 'JavelinThrow', 'LongJump', 'PoleVault', 'Shotput', 'SoccerPenalty', 'TennisSwing', 'ThrowDiscus', 'VolleyballSpiking', 'Ambiguous']
distributed:False
position encoding : learned
position decoding : learned
Warning! No positional inputs found for a module, assuming batch size is 1.
VisionTransformer_v3(
  78.772 M, 99.834% Params, 2.714 GMac, 100.000% MACs, 
  (linear_encoding): Linear(7.341 M, 9.304% Params, 0.47 GMac, 17.307% MACs, in_features=7168, out_features=1024, bias=True)
  (position_encoding): LearnedPositionalEncoding(
    0.0 M, 0.000% Params, 0.0 GMac, 0.000% MACs, 
    (pe): Embedding(0.0 M, 0.000% Params, 0.0 GMac, 0.000% MACs, 65, 1024)
  )
  (pe_dropout): Dropout(0.0 M, 0.000% Params, 0.0 GMac, 0.000% MACs, p=0.1, inplace=False)
  (encoder): TransformerModel(
    18.884 M, 23.933% Params, 1.227 GMac, 45.207% MACs, 
    (net): Sequential(
      18.884 M, 23.933% Params, 1.227 GMac, 45.207% MACs, 
      (0): Residual(
        4.195 M, 5.317% Params, 0.273 GMac, 10.044% MACs, 
        (fn): PreNormDrop(
          4.195 M, 5.317% Params, 0.273 GMac, 10.044% MACs, 
          (norm): LayerNorm(0.0 M, 0.000% Params, 0.0 GMac, 0.000% MACs, (1024,), eps=1e-05, elementwise_affine=True)
          (dropout): Dropout(0.0 M, 0.000% Params, 0.0 GMac, 0.000% MACs, p=0.1, inplace=False)
          (fn): SelfAttention(
            4.195 M, 5.317% Params, 0.273 GMac, 10.044% MACs, 
            (qkv): Linear(3.146 M, 3.987% Params, 0.204 GMac, 7.533% MACs, in_features=1024, out_features=3072, bias=False)
            (attn_drop): Dropout(0.0 M, 0.000% Params, 0.0 GMac, 0.000% MACs, p=0.1, inplace=False)
            (proj): Linear(1.05 M, 1.330% Params, 0.068 GMac, 2.511% MACs, in_features=1024, out_features=1024, bias=True)
            (proj_drop): Dropout(0.0 M, 0.000% Params, 0.0 GMac, 0.000% MACs, p=0.1, inplace=False)
          )
        )
      )
      (1): Residual(
        2.099 M, 2.660% Params, 0.136 GMac, 5.025% MACs, 
        (fn): PreNorm(
          2.099 M, 2.660% Params, 0.136 GMac, 5.025% MACs, 
          (norm): LayerNorm(0.0 M, 0.000% Params, 0.0 GMac, 0.000% MACs, (1024,), eps=1e-05, elementwise_affine=True)
          (fn): FeedForward(
            2.099 M, 2.660% Params, 0.136 GMac, 5.025% MACs, 
            (net): Sequential(
              2.099 M, 2.660% Params, 0.136 GMac, 5.025% MACs, 
              (0): Linear(1.05 M, 1.330% Params, 0.068 GMac, 2.511% MACs, in_features=1024, out_features=1024, bias=True)
              (1): GELU(0.0 M, 0.000% Params, 0.0 GMac, 0.002% MACs, )
              (2): Dropout(0.0 M, 0.000% Params, 0.0 GMac, 0.000% MACs, p=0.1, inplace=False)
              (3): Linear(1.05 M, 1.330% Params, 0.068 GMac, 2.511% MACs, in_features=1024, out_features=1024, bias=True)
              (4): Dropout(0.0 M, 0.000% Params, 0.0 GMac, 0.000% MACs, p=0.1, inplace=False)
            )
          )
        )
      )
      (2): Residual(
        4.195 M, 5.317% Params, 0.273 GMac, 10.044% MACs, 
        (fn): PreNormDrop(
          4.195 M, 5.317% Params, 0.273 GMac, 10.044% MACs, 
          (norm): LayerNorm(0.0 M, 0.000% Params, 0.0 GMac, 0.000% MACs, (1024,), eps=1e-05, elementwise_affine=True)
          (dropout): Dropout(0.0 M, 0.000% Params, 0.0 GMac, 0.000% MACs, p=0.1, inplace=False)
          (fn): SelfAttention(
            4.195 M, 5.317% Params, 0.273 GMac, 10.044% MACs, 
            (qkv): Linear(3.146 M, 3.987% Params, 0.204 GMac, 7.533% MACs, in_features=1024, out_features=3072, bias=False)
            (attn_drop): Dropout(0.0 M, 0.000% Params, 0.0 GMac, 0.000% MACs, p=0.1, inplace=False)
            (proj): Linear(1.05 M, 1.330% Params, 0.068 GMac, 2.511% MACs, in_features=1024, out_features=1024, bias=True)
            (proj_drop): Dropout(0.0 M, 0.000% Params, 0.0 GMac, 0.000% MACs, p=0.1, inplace=False)
          )
        )
      )
      (3): Residual(
        2.099 M, 2.660% Params, 0.136 GMac, 5.025% MACs, 
        (fn): PreNorm(
          2.099 M, 2.660% Params, 0.136 GMac, 5.025% MACs, 
          (norm): LayerNorm(0.0 M, 0.000% Params, 0.0 GMac, 0.000% MACs, (1024,), eps=1e-05, elementwise_affine=True)
          (fn): FeedForward(
            2.099 M, 2.660% Params, 0.136 GMac, 5.025% MACs, 
            (net): Sequential(
              2.099 M, 2.660% Params, 0.136 GMac, 5.025% MACs, 
              (0): Linear(1.05 M, 1.330% Params, 0.068 GMac, 2.511% MACs, in_features=1024, out_features=1024, bias=True)
              (1): GELU(0.0 M, 0.000% Params, 0.0 GMac, 0.002% MACs, )
              (2): Dropout(0.0 M, 0.000% Params, 0.0 GMac, 0.000% MACs, p=0.1, inplace=False)
              (3): Linear(1.05 M, 1.330% Params, 0.068 GMac, 2.511% MACs, in_features=1024, out_features=1024, bias=True)
              (4): Dropout(0.0 M, 0.000% Params, 0.0 GMac, 0.000% MACs, p=0.1, inplace=False)
            )
          )
        )
      )
      (4): Residual(
        4.195 M, 5.317% Params, 0.273 GMac, 10.044% MACs, 
        (fn): PreNormDrop(
          4.195 M, 5.317% Params, 0.273 GMac, 10.044% MACs, 
          (norm): LayerNorm(0.0 M, 0.000% Params, 0.0 GMac, 0.000% MACs, (1024,), eps=1e-05, elementwise_affine=True)
          (dropout): Dropout(0.0 M, 0.000% Params, 0.0 GMac, 0.000% MACs, p=0.1, inplace=False)
          (fn): SelfAttention(
            4.195 M, 5.317% Params, 0.273 GMac, 10.044% MACs, 
            (qkv): Linear(3.146 M, 3.987% Params, 0.204 GMac, 7.533% MACs, in_features=1024, out_features=3072, bias=False)
            (attn_drop): Dropout(0.0 M, 0.000% Params, 0.0 GMac, 0.000% MACs, p=0.1, inplace=False)
            (proj): Linear(1.05 M, 1.330% Params, 0.068 GMac, 2.511% MACs, in_features=1024, out_features=1024, bias=True)
            (proj_drop): Dropout(0.0 M, 0.000% Params, 0.0 GMac, 0.000% MACs, p=0.1, inplace=False)
          )
        )
      )
      (5): Residual(
        2.099 M, 2.660% Params, 0.136 GMac, 5.025% MACs, 
        (fn): PreNorm(
          2.099 M, 2.660% Params, 0.136 GMac, 5.025% MACs, 
          (norm): LayerNorm(0.0 M, 0.000% Params, 0.0 GMac, 0.000% MACs, (1024,), eps=1e-05, elementwise_affine=True)
          (fn): FeedForward(
            2.099 M, 2.660% Params, 0.136 GMac, 5.025% MACs, 
            (net): Sequential(
              2.099 M, 2.660% Params, 0.136 GMac, 5.025% MACs, 
              (0): Linear(1.05 M, 1.330% Params, 0.068 GMac, 2.511% MACs, in_features=1024, out_features=1024, bias=True)
              (1): GELU(0.0 M, 0.000% Params, 0.0 GMac, 0.002% MACs, )
              (2): Dropout(0.0 M, 0.000% Params, 0.0 GMac, 0.000% MACs, p=0.1, inplace=False)
              (3): Linear(1.05 M, 1.330% Params, 0.068 GMac, 2.511% MACs, in_features=1024, out_features=1024, bias=True)
              (4): Dropout(0.0 M, 0.000% Params, 0.0 GMac, 0.000% MACs, p=0.1, inplace=False)
            )
          )
        )
      )
    )
  )
  (pre_head_ln): LayerNorm(0.0 M, 0.000% Params, 0.0 GMac, 0.000% MACs, (1024,), eps=1e-05, elementwise_affine=True)
  (mlp_head): Linear(0.045 M, 0.057% Params, 0.0 GMac, 0.002% MACs, in_features=2048, out_features=22, bias=True)
  (to_cls_token): Identity(0.0 M, 0.000% Params, 0.0 GMac, 0.000% MACs, )
  (decoder): Decoder(
    52.48 M, 66.512% Params, 1.017 GMac, 37.478% MACs, 
    (layers): ModuleList(
      52.48 M, 66.512% Params, 1.017 GMac, 37.478% MACs, 
      (0): DecoderLayer(
        10.496 M, 13.302% Params, 0.203 GMac, 7.496% MACs, 
        (self_attention): AttentionLayer(
          4.198 M, 5.321% Params, 0.034 GMac, 1.236% MACs, 
          (inner_attention): FullAttention(
            0.0 M, 0.000% Params, 0.0 GMac, 0.000% MACs, 
            (dropout): Dropout(0.0 M, 0.000% Params, 0.0 GMac, 0.000% MACs, p=0.1, inplace=False)
          )
          (query_projection): Linear(1.05 M, 1.330% Params, 0.008 GMac, 0.309% MACs, in_features=1024, out_features=1024, bias=True)
          (key_projection): Linear(1.05 M, 1.330% Params, 0.008 GMac, 0.309% MACs, in_features=1024, out_features=1024, bias=True)
          (value_projection): Linear(1.05 M, 1.330% Params, 0.008 GMac, 0.309% MACs, in_features=1024, out_features=1024, bias=True)
          (out_projection): Linear(1.05 M, 1.330% Params, 0.008 GMac, 0.309% MACs, in_features=1024, out_features=1024, bias=True)
        )
        (cross_attention): AttentionLayer(
          4.198 M, 5.321% Params, 0.153 GMac, 5.640% MACs, 
          (inner_attention): FullAttention(
            0.0 M, 0.000% Params, 0.0 GMac, 0.000% MACs, 
            (dropout): Dropout(0.0 M, 0.000% Params, 0.0 GMac, 0.000% MACs, p=0.1, inplace=False)
          )
          (query_projection): Linear(1.05 M, 1.330% Params, 0.008 GMac, 0.309% MACs, in_features=1024, out_features=1024, bias=True)
          (key_projection): Linear(1.05 M, 1.330% Params, 0.068 GMac, 2.511% MACs, in_features=1024, out_features=1024, bias=True)
          (value_projection): Linear(1.05 M, 1.330% Params, 0.068 GMac, 2.511% MACs, in_features=1024, out_features=1024, bias=True)
          (out_projection): Linear(1.05 M, 1.330% Params, 0.008 GMac, 0.309% MACs, in_features=1024, out_features=1024, bias=True)
        )
        (conv1): Conv1d(1.05 M, 1.330% Params, 0.008 GMac, 0.309% MACs, 1024, 1024, kernel_size=(1,), stride=(1,))
        (conv2): Conv1d(1.05 M, 1.330% Params, 0.008 GMac, 0.309% MACs, 1024, 1024, kernel_size=(1,), stride=(1,))
        (norm1): LayerNorm(0.0 M, 0.000% Params, 0.0 GMac, 0.000% MACs, (1024,), eps=1e-05, elementwise_affine=True)
        (norm2): LayerNorm(0.0 M, 0.000% Params, 0.0 GMac, 0.000% MACs, (1024,), eps=1e-05, elementwise_affine=True)
        (norm3): LayerNorm(0.0 M, 0.000% Params, 0.0 GMac, 0.000% MACs, (1024,), eps=1e-05, elementwise_affine=True)
        (dropout): Dropout(0.0 M, 0.000% Params, 0.0 GMac, 0.000% MACs, p=0.1, inplace=False)
      )
      (1): DecoderLayer(
        10.496 M, 13.302% Params, 0.203 GMac, 7.496% MACs, 
        (self_attention): AttentionLayer(
          4.198 M, 5.321% Params, 0.034 GMac, 1.236% MACs, 
          (inner_attention): FullAttention(
            0.0 M, 0.000% Params, 0.0 GMac, 0.000% MACs, 
            (dropout): Dropout(0.0 M, 0.000% Params, 0.0 GMac, 0.000% MACs, p=0.1, inplace=False)
          )
          (query_projection): Linear(1.05 M, 1.330% Params, 0.008 GMac, 0.309% MACs, in_features=1024, out_features=1024, bias=True)
          (key_projection): Linear(1.05 M, 1.330% Params, 0.008 GMac, 0.309% MACs, in_features=1024, out_features=1024, bias=True)
          (value_projection): Linear(1.05 M, 1.330% Params, 0.008 GMac, 0.309% MACs, in_features=1024, out_features=1024, bias=True)
          (out_projection): Linear(1.05 M, 1.330% Params, 0.008 GMac, 0.309% MACs, in_features=1024, out_features=1024, bias=True)
        )
        (cross_attention): AttentionLayer(
          4.198 M, 5.321% Params, 0.153 GMac, 5.640% MACs, 
          (inner_attention): FullAttention(
            0.0 M, 0.000% Params, 0.0 GMac, 0.000% MACs, 
            (dropout): Dropout(0.0 M, 0.000% Params, 0.0 GMac, 0.000% MACs, p=0.1, inplace=False)
          )
          (query_projection): Linear(1.05 M, 1.330% Params, 0.008 GMac, 0.309% MACs, in_features=1024, out_features=1024, bias=True)
          (key_projection): Linear(1.05 M, 1.330% Params, 0.068 GMac, 2.511% MACs, in_features=1024, out_features=1024, bias=True)
          (value_projection): Linear(1.05 M, 1.330% Params, 0.068 GMac, 2.511% MACs, in_features=1024, out_features=1024, bias=True)
          (out_projection): Linear(1.05 M, 1.330% Params, 0.008 GMac, 0.309% MACs, in_features=1024, out_features=1024, bias=True)
        )
        (conv1): Conv1d(1.05 M, 1.330% Params, 0.008 GMac, 0.309% MACs, 1024, 1024, kernel_size=(1,), stride=(1,))
        (conv2): Conv1d(1.05 M, 1.330% Params, 0.008 GMac, 0.309% MACs, 1024, 1024, kernel_size=(1,), stride=(1,))
        (norm1): LayerNorm(0.0 M, 0.000% Params, 0.0 GMac, 0.000% MACs, (1024,), eps=1e-05, elementwise_affine=True)
        (norm2): LayerNorm(0.0 M, 0.000% Params, 0.0 GMac, 0.000% MACs, (1024,), eps=1e-05, elementwise_affine=True)
        (norm3): LayerNorm(0.0 M, 0.000% Params, 0.0 GMac, 0.000% MACs, (1024,), eps=1e-05, elementwise_affine=True)
        (dropout): Dropout(0.0 M, 0.000% Params, 0.0 GMac, 0.000% MACs, p=0.1, inplace=False)
      )
      (2): DecoderLayer(
        10.496 M, 13.302% Params, 0.203 GMac, 7.496% MACs, 
        (self_attention): AttentionLayer(
          4.198 M, 5.321% Params, 0.034 GMac, 1.236% MACs, 
          (inner_attention): FullAttention(
            0.0 M, 0.000% Params, 0.0 GMac, 0.000% MACs, 
            (dropout): Dropout(0.0 M, 0.000% Params, 0.0 GMac, 0.000% MACs, p=0.1, inplace=False)
          )
          (query_projection): Linear(1.05 M, 1.330% Params, 0.008 GMac, 0.309% MACs, in_features=1024, out_features=1024, bias=True)
          (key_projection): Linear(1.05 M, 1.330% Params, 0.008 GMac, 0.309% MACs, in_features=1024, out_features=1024, bias=True)
          (value_projection): Linear(1.05 M, 1.330% Params, 0.008 GMac, 0.309% MACs, in_features=1024, out_features=1024, bias=True)
          (out_projection): Linear(1.05 M, 1.330% Params, 0.008 GMac, 0.309% MACs, in_features=1024, out_features=1024, bias=True)
        )
        (cross_attention): AttentionLayer(
          4.198 M, 5.321% Params, 0.153 GMac, 5.640% MACs, 
          (inner_attention): FullAttention(
            0.0 M, 0.000% Params, 0.0 GMac, 0.000% MACs, 
            (dropout): Dropout(0.0 M, 0.000% Params, 0.0 GMac, 0.000% MACs, p=0.1, inplace=False)
          )
          (query_projection): Linear(1.05 M, 1.330% Params, 0.008 GMac, 0.309% MACs, in_features=1024, out_features=1024, bias=True)
          (key_projection): Linear(1.05 M, 1.330% Params, 0.068 GMac, 2.511% MACs, in_features=1024, out_features=1024, bias=True)
          (value_projection): Linear(1.05 M, 1.330% Params, 0.068 GMac, 2.511% MACs, in_features=1024, out_features=1024, bias=True)
          (out_projection): Linear(1.05 M, 1.330% Params, 0.008 GMac, 0.309% MACs, in_features=1024, out_features=1024, bias=True)
        )
        (conv1): Conv1d(1.05 M, 1.330% Params, 0.008 GMac, 0.309% MACs, 1024, 1024, kernel_size=(1,), stride=(1,))
        (conv2): Conv1d(1.05 M, 1.330% Params, 0.008 GMac, 0.309% MACs, 1024, 1024, kernel_size=(1,), stride=(1,))
        (norm1): LayerNorm(0.0 M, 0.000% Params, 0.0 GMac, 0.000% MACs, (1024,), eps=1e-05, elementwise_affine=True)
        (norm2): LayerNorm(0.0 M, 0.000% Params, 0.0 GMac, 0.000% MACs, (1024,), eps=1e-05, elementwise_affine=True)
        (norm3): LayerNorm(0.0 M, 0.000% Params, 0.0 GMac, 0.000% MACs, (1024,), eps=1e-05, elementwise_affine=True)
        (dropout): Dropout(0.0 M, 0.000% Params, 0.0 GMac, 0.000% MACs, p=0.1, inplace=False)
      )
      (3): DecoderLayer(
        10.496 M, 13.302% Params, 0.203 GMac, 7.496% MACs, 
        (self_attention): AttentionLayer(
          4.198 M, 5.321% Params, 0.034 GMac, 1.236% MACs, 
          (inner_attention): FullAttention(
            0.0 M, 0.000% Params, 0.0 GMac, 0.000% MACs, 
            (dropout): Dropout(0.0 M, 0.000% Params, 0.0 GMac, 0.000% MACs, p=0.1, inplace=False)
          )
          (query_projection): Linear(1.05 M, 1.330% Params, 0.008 GMac, 0.309% MACs, in_features=1024, out_features=1024, bias=True)
          (key_projection): Linear(1.05 M, 1.330% Params, 0.008 GMac, 0.309% MACs, in_features=1024, out_features=1024, bias=True)
          (value_projection): Linear(1.05 M, 1.330% Params, 0.008 GMac, 0.309% MACs, in_features=1024, out_features=1024, bias=True)
          (out_projection): Linear(1.05 M, 1.330% Params, 0.008 GMac, 0.309% MACs, in_features=1024, out_features=1024, bias=True)
        )
        (cross_attention): AttentionLayer(
          4.198 M, 5.321% Params, 0.153 GMac, 5.640% MACs, 
          (inner_attention): FullAttention(
            0.0 M, 0.000% Params, 0.0 GMac, 0.000% MACs, 
            (dropout): Dropout(0.0 M, 0.000% Params, 0.0 GMac, 0.000% MACs, p=0.1, inplace=False)
          )
          (query_projection): Linear(1.05 M, 1.330% Params, 0.008 GMac, 0.309% MACs, in_features=1024, out_features=1024, bias=True)
          (key_projection): Linear(1.05 M, 1.330% Params, 0.068 GMac, 2.511% MACs, in_features=1024, out_features=1024, bias=True)
          (value_projection): Linear(1.05 M, 1.330% Params, 0.068 GMac, 2.511% MACs, in_features=1024, out_features=1024, bias=True)
          (out_projection): Linear(1.05 M, 1.330% Params, 0.008 GMac, 0.309% MACs, in_features=1024, out_features=1024, bias=True)
        )
        (conv1): Conv1d(1.05 M, 1.330% Params, 0.008 GMac, 0.309% MACs, 1024, 1024, kernel_size=(1,), stride=(1,))
        (conv2): Conv1d(1.05 M, 1.330% Params, 0.008 GMac, 0.309% MACs, 1024, 1024, kernel_size=(1,), stride=(1,))
        (norm1): LayerNorm(0.0 M, 0.000% Params, 0.0 GMac, 0.000% MACs, (1024,), eps=1e-05, elementwise_affine=True)
        (norm2): LayerNorm(0.0 M, 0.000% Params, 0.0 GMac, 0.000% MACs, (1024,), eps=1e-05, elementwise_affine=True)
        (norm3): LayerNorm(0.0 M, 0.000% Params, 0.0 GMac, 0.000% MACs, (1024,), eps=1e-05, elementwise_affine=True)
        (dropout): Dropout(0.0 M, 0.000% Params, 0.0 GMac, 0.000% MACs, p=0.1, inplace=False)
      )
      (4): DecoderLayer(
        10.496 M, 13.302% Params, 0.203 GMac, 7.496% MACs, 
        (self_attention): AttentionLayer(
          4.198 M, 5.321% Params, 0.034 GMac, 1.236% MACs, 
          (inner_attention): FullAttention(
            0.0 M, 0.000% Params, 0.0 GMac, 0.000% MACs, 
            (dropout): Dropout(0.0 M, 0.000% Params, 0.0 GMac, 0.000% MACs, p=0.1, inplace=False)
          )
          (query_projection): Linear(1.05 M, 1.330% Params, 0.008 GMac, 0.309% MACs, in_features=1024, out_features=1024, bias=True)
          (key_projection): Linear(1.05 M, 1.330% Params, 0.008 GMac, 0.309% MACs, in_features=1024, out_features=1024, bias=True)
          (value_projection): Linear(1.05 M, 1.330% Params, 0.008 GMac, 0.309% MACs, in_features=1024, out_features=1024, bias=True)
          (out_projection): Linear(1.05 M, 1.330% Params, 0.008 GMac, 0.309% MACs, in_features=1024, out_features=1024, bias=True)
        )
        (cross_attention): AttentionLayer(
          4.198 M, 5.321% Params, 0.153 GMac, 5.640% MACs, 
          (inner_attention): FullAttention(
            0.0 M, 0.000% Params, 0.0 GMac, 0.000% MACs, 
            (dropout): Dropout(0.0 M, 0.000% Params, 0.0 GMac, 0.000% MACs, p=0.1, inplace=False)
          )
          (query_projection): Linear(1.05 M, 1.330% Params, 0.008 GMac, 0.309% MACs, in_features=1024, out_features=1024, bias=True)
          (key_projection): Linear(1.05 M, 1.330% Params, 0.068 GMac, 2.511% MACs, in_features=1024, out_features=1024, bias=True)
          (value_projection): Linear(1.05 M, 1.330% Params, 0.068 GMac, 2.511% MACs, in_features=1024, out_features=1024, bias=True)
          (out_projection): Linear(1.05 M, 1.330% Params, 0.008 GMac, 0.309% MACs, in_features=1024, out_features=1024, bias=True)
        )
        (conv1): Conv1d(1.05 M, 1.330% Params, 0.008 GMac, 0.309% MACs, 1024, 1024, kernel_size=(1,), stride=(1,))
        (conv2): Conv1d(1.05 M, 1.330% Params, 0.008 GMac, 0.309% MACs, 1024, 1024, kernel_size=(1,), stride=(1,))
        (norm1): LayerNorm(0.0 M, 0.000% Params, 0.0 GMac, 0.000% MACs, (1024,), eps=1e-05, elementwise_affine=True)
        (norm2): LayerNorm(0.0 M, 0.000% Params, 0.0 GMac, 0.000% MACs, (1024,), eps=1e-05, elementwise_affine=True)
        (norm3): LayerNorm(0.0 M, 0.000% Params, 0.0 GMac, 0.000% MACs, (1024,), eps=1e-05, elementwise_affine=True)
        (dropout): Dropout(0.0 M, 0.000% Params, 0.0 GMac, 0.000% MACs, p=0.1, inplace=False)
      )
    )
    (norm): LayerNorm(0.0 M, 0.000% Params, 0.0 GMac, 0.000% MACs, (1024,), eps=1e-05, elementwise_affine=True)
  )
  (decoder_position_encoding): LearnedPositionalEncoding(
    0.0 M, 0.000% Params, 0.0 GMac, 0.000% MACs, 
    (pe): Embedding(0.0 M, 0.000% Params, 0.0 GMac, 0.000% MACs, 8, 1024)
  )
  (classifier): Linear(0.023 M, 0.029% Params, 0.0 GMac, 0.007% MACs, in_features=1024, out_features=22, bias=True)
  (after_dropout): Dropout(0.0 M, 0.000% Params, 0.0 GMac, 0.000% MACs, p=0.1, inplace=False)
)
Model FLOPs: 2714272812.0
Model params: 78903340
Loaded data/thumos_anet_plus_audio_val.pickle
Loaded data/thumos_anet_plus_audio_test.pickle
Start training
Epoch: [1]  [   0/1404]  eta: 1:27:19  lr: 0.000100  loss: 4.8645 (4.8645)  labels_encoder: 3.1808 (3.1808)  labels_decoder: 1.6837 (1.6837)  labels_encoder_unscaled: 3.1808 (3.1808)  labels_decoder_unscaled: 3.3674 (3.3674)  time: 3.7315  data: 3.0020  max mem: 2800
…
